examples/distributed/ddp-tutorial-series/tests/ground_truths/multinode_multigpu_torchrun_no/epoch_40/snapshot.pt (torch, 6888 bytes, 1 tensors)

linear.weight f4 [1, 20]
-0.056524605 -0.04095062 -0.032125834 -0.039226882 -0.021690972 -0.042465758 -0.011337817 0.056216553
-0.0213927 -0.03296645 -0.019176945 -0.01080095 -0.032453865 0.0439964 0.04013094 -0.03668961
-0.02053846 0.042623736 0.029000236 0.028194034
00000000: 5886 67bd d6bb 27bd 6196 03bd 5eac 20bd
00000010: 44b1 b1bc 93f0 2dbd 40c2 39bc 5443 663d
00000020: be3f afbc d407 07bd f818 9dbc 78f6 30bc
00000030: 58ee 04bd 9235 343d 5760 243d d847 16bd
00000040: 4640 a8bc 3a96 2e3d e791 ed3c 2df7 e63c
